…
20},"id":"05SlpZDsAwPH","outputId":"70fb1387-08ee-4d68-9286-29faca30816d"},"outputs":[{"output_type":"stream","name":"stdout","text":["Downloading data from https://storage.googleapis.com/tensorflow/keras-applications/efficientnet_v2/efficientnetv2-b3_notop.h5\n","52606240/52606240 [==============================] - 2s 0us/step\n","Model: \"sequential\"\n","_________________________________________________________________\n"," Layer (type)                Output Shape              Param #   \n","=================================================================\n"," efficientnetv2-b3 (Function  (None, 10, 10, 1536)     12930622  \n"," al)                                                             \n","                                                                 \n"," avg_pool (GlobalAveragePool  (None, 1536)             0         \n"," ing2D)                                                          \n","                                                                 \n"," batch_normalization (BatchN  (None, 1536)             6144      \n"," ormalization)                                                   \n","                                                                 \n"," flatten (Flatten)           (None, 1536)              0         \n","                                                                 \n"," dropout (Dropout)           (None, 1536)              0         \n","                                                                 \n"," dense (Dense)               (None, 1024)              1573888   \n","                                                                 \n"," dropout_1 (Dropout)         (None, 1024)              0         \n","                                                                 \n"," dense_1 (Dense)             (None, 256)               262400    \n","                                                                 \n"," dense_2 (Dense)             (None, 13)                3341      \n","                                                                 \n","=================================================================\n","Total params: 14,776,395\n","Trainable params: 14,664,107\n","Non-trainable params: 112,288\n","_________________________________________________________________\n"]}],"source":["#you don't need to run this just load model & weight from my drive\n",
…
